…
&lt;span class=&quot;n&quot;&gt;vgg_model&lt;/span&gt;&lt;span class=&quot;o&quot;&gt;.&lt;/span&gt;&lt;span class=&quot;n&quot;&gt;summary&lt;/span&gt;&lt;span class=&quot;p&quot;&gt;()&lt;/span&gt;
&lt;/pre&gt;&lt;/div&gt;

    &lt;/div&gt;
&lt;/div&gt;
&lt;/div&gt;

&lt;div class=&quot;output_wrapper&quot;&gt;
&lt;div class=&quot;output&quot;&gt;

&lt;div class=&quot;output_area&quot;&gt;

&lt;div class=&quot;output_subarea output_stream output_stdout output_text&quot;&gt;
&lt;pre&gt;_________________________________________________________________
Layer (type)                 Output Shape              Param #   
=================================================================
input_3 (InputLayer)         (None, 128, 128, 3)       0         
_________________________________________________________________
block1_conv1 (Conv2D)        (None, 128, 128, 64)      1792      
_________________________________________________________________
block1_conv2 (Conv2D)        (None, 128, 128, 64)      36928     
_________________________________________________________________
block1_pool (MaxPooling2D)   (None, 64, 64, 64)        0         
_________________________________________________________________
block2_conv1 (Conv2D)        (None, 64, 64, 128)       73856     
_________________________________________________________________
block2_conv2 (Conv2D)        (None, 64, 64, 128)       147584    
_________________________________________________________________
block2_pool (MaxPooling2D)   (None, 32, 32, 128)       0         
_________________________________________________________________
block3_conv1 (Conv2D)        (None, 32, 32, 256)       295168    
_________________________________________________________________
block3_conv2 (Conv2D)        (None, 32, 32, 256)       590080    
_________________________________________________________________
block3_conv3 (Conv2D)        (None, 32, 32, 256)       590080    
_________________________________________________________________
block3_pool (MaxPooling2D)   (None, 16, 16, 256)       0         
_________________________________________________________________
block4_conv1 (Conv2D)        (None, 16, 16, 512)       1180160   
_________________________________________________________________
block4_conv2 (Conv2D)        (None, 16, 16, 512)       2359808   
_________________________________________________________________
block4_conv3 (Conv2D)        (None, 16, 16, 512)       2359808   
_________________________________________________________________
block4_pool (MaxPooling2D)   (None, 8, 8, 512)         0         
_________________________________________________________________
block5_conv1 (Conv2D)        (None, 8, 8, 512)         2359808   
_________________________________________________________________
block5_conv2 (Conv2D)        (None, 8, 8, 512)         2359808   
_________________________________________________________________
block5_conv3 (Conv2D)        (None, 8, 8, 512)         2359808   
_________________________________________________________________
block5_pool (MaxPooling2D)   (None, 4, 4, 512)         0         
=================================================================
Total params: 14,714,688
Trainable params: 14,714,688
Non-trainable params: 0
_________________________________________________________________
&lt;/pre&gt;
&lt;/div&gt;
&lt;/div&gt;

&lt;/div&gt;
&lt;/div&gt;

&lt;/div&gt;
    

&lt;div class=&quot;cell border-box-sizing text_cell rendered&quot;&gt;&lt;div class=&quot;inner_cell&quot;&gt;
…
&lt;span class=&quot;n&quot;&gt;finalmodel&lt;/span&gt;&lt;span class=&quot;o&quot;&gt;.&lt;/span&gt;&lt;span class=&quot;n&quot;&gt;summary&lt;/span&gt;&lt;span class=&quot;p&quot;&gt;()&lt;/span&gt;
&lt;/pre&gt;&lt;/div&gt;

    &lt;/div&gt;
&lt;/div&gt;
&lt;/div&gt;

&lt;div class=&quot;output_wrapper&quot;&gt;
&lt;div class=&quot;output&quot;&gt;

&lt;div class=&quot;output_area&quot;&gt;

&lt;div class=&quot;output_subarea output_stream output_stdout output_text&quot;&gt;
&lt;pre&gt;_________________________________________________________________
Layer (type)                 Output Shape              Param #   
=================================================================
vgg16 (Model)                (None, 4, 4, 512)         14714688  
_________________________________________________________________
flatten_17 (Flatten)         (None, 8192)              0         
_________________________________________________________________
dense_32 (Dense)             (None, 1024)              8389632   
_________________________________________________________________
dropout_13 (Dropout)         (None, 1024)              0         
_________________________________________________________________
dense_33 (Dense)             (None, 12)                12300     
=================================================================
Total params: 23,116,620
Trainable params: 15,481,356
Non-trainable params: 7,635,264
_________________________________________________________________
&lt;/pre&gt;
&lt;/div&gt;
&lt;/div&gt;

&lt;/div&gt;
&lt;/div&gt;

&lt;/div&gt;
    

    
    
&lt;div class=&quot;cell border-box-sizing code_cell rendered&quot;&gt;
&lt;div class=&quot;input&quot;&gt;
…
